model/model.pth (torch, 16787 bytes, 4 tensors)

linear1.weight f4 [256, 11]
000000 fd 3d 0d be bf 3d e7 bd 7c c3 4d 3a 44 ca 63 3e
       -0.13793178 -0.11291074 0.0007849259 0.22245127
000010 e3 e4 ab be 1b 76 bf be bf a3 4a 3e ec 6e 99 be
       -0.33573064 -0.37394795 0.19789027 -0.2996744
000020 d3 53 98 3e 1a df a7 3e 3a 7e 5b be 72 91 25 3e
       0.29751453 0.327874 -0.2143487 0.16168764
000030 5b 1c 05 bd 93 6e d2 3d bb 3a c0 3b 00 ac 35 bc
       -0.032497745 0.102749966 0.005866376 -0.011088371
000040 54 7b 3f be e7 b0 fb bc 98 6b 90 3c f6 01 d4 bd
       -0.1869939 -0.030724002 0.01762943 -0.103519365
000050 fd 3c 96 be eb c0 84 be 42 ff 4b 3e 08 1f ad bd
       -0.29343405 -0.25928435 0.19921592 -0.08453184
000060 3a 93 d5 3e 9b a2 0f 39 08 36 ac be 09 ac 09 3e
       0.41713887 0.00013698118 -0.33634973 0.13444532
000070 8d 4b 97 be bb 3d c9 bc 18 27 b0 3e 7c 56 17 be
       -0.29549828 -0.024565568 0.34404826 -0.14779085
000080 c1 99 f8 3c c1 e5 22 3c 83 bb 04 be 9d d9 e2 3d
       0.030346753 0.009942473 -0.12962155 0.11076663
000090 8b a9 02 be 14 a7 76 be 90 42 95 be ff af 9c bd
       -0.12759988 -0.24087173 -0.29152346 -0.07650756
0000a0 a6 71 91 bd 52 01 fa 3c 18 97 58 3d b0 46 6c bc
       -0.07101755 0.030518208 0.05287847 -0.01442115
0000b0 a5 f2 91 be cc 1d 51 3e ac b5 ce 3e e9 08 22 3e
       -0.28505436 0.20421523 0.4037298 0.15823711
0000c0 5e 90 1f 3e 65 86 94 3d 35 90 d3 3d fd 06 22 be
       0.15582415 0.07252196 0.1033024 -0.15822978
0000d0 22 7f d2 3d d1 61 fb bc 81 c3 62 bd ef f5 99 be
       0.10278155 -0.030686291 -0.05536223 -0.30070445
0000e0 5e 31 5a 3d dd ef e8 3d aa 81 fc be d0 5d e4 be
       0.053269736 0.11373875 -0.49317676 -0.44602823
0000f0 52 d7 ac 3e cd a1 c2 3e cc 4a 11 bf a5 f2 0d bf
       0.33758026 0.3801407 -0.56754756 -0.5544837
000100 9d f2 0d 3e 26 3f b3 3e 85 f6 0b 3d 9d 45 12 bf
       0.13862081 0.35009116 0.034170646 -0.5713747
000110 62 f4 c7 3e 35 27 a1 3e ee 09 40 3c 18 df 4a 3e
       0.39053637 0.31475225 0.011721117 0.19811666
000120 fc 1b da 3d 02 a2 7e bd ef 44 ca bc fc 3a 3d bd
       0.10649869 -0.06216622 -0.024691073 -0.04619883
000130 4d 93 2f 3e 3e 06 0a be c7 7e 98 3e 4a 5a 16 be
       0.17146035 -0.13478944 0.29784223 -0.1468288
000140 8f cf c0 3a f0 7c ce bd 29 e5 1d 3e 5c ba eb 3d
       0.0014710295 -0.10082424 0.15419449 0.115101546
000150 0c 40 ac bc 29 f7 3c be 9c ec 55 be ef fa 21 be
       -0.021026634 -0.18453659 -0.2089104 -0.1581838
000160 9f 0d ee b9 c0 cb c6 bc 29 c6 b9 be dc f4 80 3e
       -0.00045405046 -0.024267077 -0.36283997 0.25186813
000170 0b 23 dd be 1d f4 66 be b0 48 7d 3d b2 96 30 bd
       -0.43190798 -0.2255406 0.0618369 -0.043112464
000180 b4 dc d5 be e9 3d af be d7 53 c7 3e 5f f1 9a 3e
       -0.41769946 -0.3422692 0.38931152 0.30262277
000190 87 19 14 3f f3 ff 2c be 93 cc e0 3d 24 3e fd bc
       0.5785145 -0.16894512 0.109765194 -0.03091342
0001a0 d9 db 94 3e e2 f7 92 bd a6 21 20 3e fc a7 17 be
       0.2907398 -0.07176186 0.15637836 -0.14810175
0001b0 52 a5 86 3b 8b 9f 7d 3e 58 7c a0 bd a0 05 e8 3e
       0.004109063 0.24767892 -0.07836217 0.45316792
0001c0 e4 a9 86 be 2b 7b d8 3d 3c 43 9c be b8 4c b6 bd
       -0.2630149 0.105703674 -0.30520046 -0.08901352
0001d0 7a 37 21 bb f1 c9 ff bd b1 3a 06 bd a4 68 81 be
       -0.0024599717 -0.12489689 -0.032770816 -0.25275147
0001e0 6f 0a 8c 3d 3c 4a ee 3d 78 d9 83 3e 5e 02 ec bd
       0.068379276 0.11635253 0.25751853 -0.11523889
0001f0 96 28 f6 bd bf a5 0f be 60 aa 32 bd 7f 74 99 be
       -0.1201946 -0.14028071 -0.043619514 -0.29971692
000200 9a 7a c8 bd 66 89 8a be af 7b 3d be 52 51 ad bd
       -0.097890094 -0.27057952 -0.18504213 -0.08462776
000210 db 50 46 3e b6 af 84 3e d0 b2 31 be 9b f3 65 bd
       0.19366781 0.25915307 -0.17353368 -0.056140523
000220 ff 02 79 be b9 e8 62 3e 14 e0 84 bd b6 a3 3c 3d
       -0.24317549 0.22159089 -0.06488052 0.046054564
000230 6a 1b 4a bd b2 57 77 be 87 75 69 3e 06 b9 97 bd
       -0.04934255 -0.24154547 0.2279874 -0.07408337
000240 07 c0 b3 be 73 24 62 3d 7c 19 e1 3e 5f 8b 6a 3e
       -0.35107443 0.055210542 0.43964756 0.22904728
000250 72 49 86 3e 48 76 df be 2f 77 99 be 25 51 0c be
       0.2622791 -0.4364493 -0.29973742 -0.13702829
000260 d3 02 94 3d 39 fa 24 bf 6e 1e 46 bd 20 b3 3f be
       0.07227101 -0.6444431 -0.048368864 -0.18720675
000270 28 9b ee 3e 6b 97 46 be 14 04 af be 55 e6 7d 3e
       0.4660275 -0.19393699 -0.341828 0.24794896
000280 36 56 81 3e 57 d4 ec be 4c 9d b4 be 61 a8 73 3e
       0.25261086 -0.46255752 -0.35276258 0.237947
000290 a9 bf 01 3e bf d9 23 3e 59 b0 0a 3e 3f 34 8b 3b
       0.12670769 0.16001032 0.13543834 0.0042481716
0002a0 45 8e b1 be d2 17 ee 3e d5 bb 2c 3e c0 32 94 bd
       -0.34678856 0.46502548 0.16868527 -0.07236242
0002b0 72 b6 e3 3e c3 88 e6 be 92 1c b3 bd d5 fc 17 3e
       0.44475132 -0.45026216 -0.08745684 0.14842542
0002c0 58 0f db 3e 77 65 6c 3e 46 d8 ca be 22 83 8d 3e
       0.42785144 0.23085581 -0.3961813 0.2763911
0002d0 d6 a5 33 be 3f db cf 3e 52 5a 82 3e 74 11 42 3e
       -0.1754373 0.4059696 0.25459534 0.1895197
0002e0 7c 95 96 3e 2a f2 67 be 0a bc cd bd 34 37 08 bf
       0.29410923 -0.22650972 -0.10045631 -0.53209233
0002f0 1c ec 5f bc 6f 8f e7 3e 22 f0 91 bc ee 4e 55 3d
       -0.013667133 0.4522662 -0.0178147 0.052077226
000300 eb b5 34 3e 73 2c 58 be d7 17 21 3e 2b 45 9f 3d
       0.17647521 -0.21110706 0.1573175 0.077768646
000310 9d 19 a8 be f2 c4 a3 be 08 d2 e3 be 8a 5c ca 3c
       -0.3283204 -0.31986195 -0.4449618 0.02470233
000320 16 05 9d 3e b4 18 1c 3e 2f 9e f8 bd de 30 d7 bc
       0.30667943 0.15243798 -0.12139546 -0.026268419
000330 3f a2 ac 3c 8c 8c 04 be ca 2c f7 3d 42 bd 7c bd
       0.021073459 -0.1294424 0.1206909 -0.061703928
000340 da 14 27 3e 09 2f 90 be e0 53 eb be 8e 88 e3 3e
       0.16316548 -0.28160885 -0.4596243 0.4444012
000350 cb 12 2c bd 4c 2f fc bd 33 2d b0 bd 8c fc 11 3e
       -0.04201011 -0.12313709 -0.08602371 0.14256495
000360 8c 30 2b bc 10 5b bd bd b0 32 30 bd dd e7 3c 3e
       -0.010448586 -0.092458844 -0.04301709 0.18447824
000370 80 10 8c 3d 14 51 45 3e 9e 0a c0 3d 88 f3 1c be
       0.068390846 0.1926921 0.09377025 -0.15327275
000380 da c8 b7 bd 86 5f ce 3c 8f 72 bd 3e 41 ac 50 3e
       -0.08973856 0.025192033 0.37001464 0.2037821
000390 7d 2a 12 3e 5d 12 d0 be 3b 0d 5b be ce 8e e0 3e
       0.1427402 -0.4063901 -0.21391766 0.4385895
0003a0 cf f4 88 be b2 44 02 3f 75 ac 80 be 27 8a 20 be
       -0.26749274 0.5088607 -0.25131574 -0.15677701
0003b0 50 dd b1 bd ce cd 4e be 83 6d 8c 3e b3 7b 6d 3e
       -0.0868479 -0.20195696 0.274273 0.23191719
0003c0 3e e2 16 3e eb 30 a0 3e ec c0 89 be 43 5a b1 bd
       0.14734742 0.3128732 -0.26905 -0.08659794
0003d0 ee 25 96 3d fe 0a a8 3e 1f 36 ca 3d 61 d8 b7 be
       0.07331453 0.32820886 0.09873604 -0.35907272
0003e0 fa 4c b8 be cd 3c f1 be cd 99 0f be ba 37 90 3e
       -0.35996228 -0.471167 -0.14023514 0.28167516
0003f0 2c ca a2 3e 57 8a 12 3c f4 fd 6d 3e 16 c7 cb be
       0.3179487 0.008944116 0.23241407 -0.39800328

linear1.bias f4 [256]
000000 c0 b9 54 bb f7 37 a6 be 1b 8c 98 3b a0 09 ff bd
       -0.0032459348 -0.32464573 0.0046553737 -0.12453008
000010 28 15 49 3e 3a 90 03 3e f2 af f3 3d 18 2b 2a be
       0.19636977 0.12847987 0.11898793 -0.16618001
000020 b0 a4 64 3c ed eb 91 be ea 71 f8 3c 8d 75 83 be
       0.01395528 -0.2850031 0.030327756 -0.25675622
000030 c4 b0 6b be 27 18 dd 3e c4 e8 a0 3d 21 67 a7 bd
       -0.2301665 0.4318249 0.078568965 -0.08173967
000040 a2 14 19 be e7 7e b9 3e 3b 81 83 3e f2 6c 75 3e
       -0.14949277 0.3622963 0.25684533 0.2396734
000050 a9 3c 28 be 90 f2 a0 bd 7d 31 38 3c bd 47 67 be
       -0.1642939 -0.07858765 0.011242268 -0.2258596
000060 ab 55 98 3d 62 55 aa bd fe 4f 80 be 28 d0 b9 bd
       0.07438215 -0.08317067 -0.2506103 -0.09072906
000070 84 9a cf 3d fe 6e 0c bd 7c b9 82 be b8 9c d2 3c
       0.101368934 -0.034285538 -0.25532138 0.025709495
000080 c8 fa 2b bd b0 54 16 bd 44 d3 cf bd 09 10 93 bc
       -0.04198721 -0.036701858 -0.101477176 -0.017951982
000090 17 53 ea 3d 19 29 30 be 58 4e 11 be c3 c6 8a 3d
       0.114416294 -0.17203178 -0.14190042 0.06776192
0000a0 43 e1 80 bc fa 49 8f 3a 5e e6 01 be 3d a8 ae be
       -0.015732413 0.0010932081 -0.12685534 -0.3411273
0000b0 48 1a 1c be 93 cc 5d 3d f5 23 bd 3d 03 6a 69 be
       -0.152444 0.054150175 0.09235374 -0.22794347
0000c0 20 5f 66 be a5 3c 27 3d b5 01 1b 3e 3d 2d ef 3d
       -0.22497225 0.04082932 0.1513737 0.116785504
0000d0 08 92 8c 3e 4e 1a e0 bd 7a b1 63 bb 1a f8 ab 3c
       0.27455163 -0.10942517 -0.0034743235 0.020992327
0000e0 c4 e6 47 be 76 96 49 3e 00 43 af 3d 42 db 24 be
       -0.19521624 0.19686303 0.08557701 -0.16099265
0000f0 8c 92 70 bc ec 5e 17 bd 49 c5 3e 3e d4 b1 22 3e
       -0.014683377 -0.03695576 0.18629946 0.15888149
000100 83 49 3d be 58 d6 39 3e eb fc 54 be fc 20 7b bc
       -0.18485074 0.18148172 -0.20799606 -0.015327688
000110 0d 44 81 3d 92 96 47 3e 7a 95 77 bd 28 ba c4 3d
       0.06311808 0.19491032 -0.060445286 0.09605819
000120 75 a9 7c be 38 b3 68 be d1 86 fa 3d fa db 1c 3e
       -0.24674018 -0.22724617 0.122327454 0.1531829
000130 36 ea 54 3f 7f 2e eb 3e 2f 22 25 3e 49 69 dd 3d
       0.8316988 0.4593391 0.16126321 0.10811097
000140 02 95 3f 3e a9 24 e4 3e 07 58 9f bd 48 e8 06 3e
       0.18709186 0.4455922 -0.07780462 0.13174546
000150 2b 07 3c be 74 de 83 bd 2f e1 19 be 00 f9 42 be
       -0.1836211 -0.06438914 -0.15027307 -0.19040298
000160 2c f9 18 3e ec 99 fa 3d 4c e8 40 3c cc a8 2c be
       0.14938802 0.122363895 0.011774134 -0.16861266
000170 86 7b 2d bd d9 73 29 bd 04 0d 96 bd ee d0 5b 3c
       -0.04235413 -0.041370247 -0.07326701 0.013416512
000180 7c c5 0c 3e 61 94 97 be a1 00 ea 3d 09 12 06 3f
       0.1374721 -0.29605392 0.11425901 0.5237127
000190 cf 9e 3f be 8a f8 94 3d 14 86 29 be 1d f1 87 be
       -0.18712924 0.072739676 -0.16555053 -0.26551142
0001a0 46 2d 13 3e b5 71 a7 3d 7a a8 de bd a3 76 48 be
       0.14372739 0.08175985 -0.10871978 -0.19576506
0001b0 5e 17 f3 3d 42 8f 2d be 4f 1f b5 be 1d b8 36 be
       0.11869691 -0.1694918 -0.3537545 -0.17843671
0001c0 8a 9b f6 bd 4c bf 0f be 35 ec 85 3d 55 bf d0 3d
       -0.120413855 -0.14037818 0.065391935 0.10192744
0001d0 5c 22 9a bd da 43 c6 3d 4b 1a d7 bd 58 ef c3 bc
       -0.07526085 0.096809104 -0.10503062 -0.023917839
0001e0 93 db 88 bd ed d7 a3 3e 7a ff 84 3e fc a2 66 3e
       -0.066825055 0.32000676 0.25976163 0.22523111
0001f0 d1 02 e1 bd b8 a2 28 3e 05 43 a3 bb f5 a2 3a be
       -0.10986865 0.16468322 -0.0049823546 -0.18226226
000200 38 34 cf 3d 12 52 dc bd bb ae f1 bd f0 6e 8b be
       0.10117382 -0.10757841 -0.11800905 -0.27233076
000210 c0 3f 05 be 36 e8 10 3e 28 97 90 be 58 a2 32 bd
       -0.130126 0.14151081 -0.28240323 -0.043611854
000220 42 35 2e be 56 95 70 be 25 7e 1d be 24 0d b8 bd
       -0.17012504 -0.23494467 -0.15380152 -0.089868814
000230 6e 3e 12 bd d6 58 8a 3e c6 8b 88 bd e6 a7 3b be
       -0.03570407 0.270209 -0.06667285 -0.18325767
000240 e3 c3 31 3e 42 ca 75 3e 29 f1 44 3e 2d 64 9d 3d
       0.17359881 0.24002936 0.1923262 0.07685123
000250 a2 17 b1 3e cc 76 ce 3d b6 e4 04 3e a2 ba 0e 3f
       0.34588343 0.100812525 0.12977871 0.5575353
000260 5f a3 6b be 5e bc 08 3f 8f db be bc b4 10 57 3d
       -0.2301154 0.53412426 -0.023298053 0.052506164
000270 87 e8 5e 3e 42 6b ca bd 6a d4 e9 3e 77 33 ab be
       0.2176839 -0.09883739 0.45669872 -0.33437702
000280 86 2e 87 bb e8 0c 38 be e6 19 12 be af 65 b2 bd
       -0.004125419 -0.17973673 -0.14267692 -0.08710801
000290 81 09 06 3f 0b 8b 9a be 4b 16 84 be 5f 61 3c 3e
       0.5235825 -0.30184206 -0.25798258 0.18396519
0002a0 54 30 5d 3e ec bc d8 bc b0 86 3e be b8 05 05 bd
       0.21600467 -0.026457272 -0.18606067 -0.032476157
0002b0 a0 6a b9 3e 54 97 8f 3d 63 fc 75 3d ff 99 11 be
       0.3621416 0.070112854 0.060055148 -0.14218901
0002c0 97 f2 4c be 30 15 26 be 9e 35 95 be b7 58 b4 be
       -0.20014416 -0.1621902 -0.2914247 -0.35223934
0002d0 a5 b8 c3 bd ab a3 5a bc bf 2f 18 bd e6 8f ce bd
       -0.095567025 -0.013344686 -0.03715491 -0.1008604
0002e0 c8 f7 95 3b c4 73 31 be c3 d6 e3 3e d1 81 78 bc
       0.004576657 -0.17329317 0.44499788 -0.015167669
0002f0 96 d9 09 be 6e 89 26 be a1 d6 5b be 99 7d e5 bd
       -0.13461909 -0.16263363 -0.21468593 -0.112055965
000300 04 3c 01 bf c6 d2 c2 bd 20 23 38 bd 39 b1 8a be
       -0.504822 -0.09512858 -0.044955373 -0.27088335
000310 9b 9e 9b 3d e1 76 1d 3e 77 e9 1d be f2 b1 4d bc
       0.07598611 0.1537738 -0.15421091 -0.0125546325
000320 d5 c8 83 3b 1b 66 77 3d ca f4 35 be e1 f4 f0 bd
       0.004021744 0.06040011 -0.17769161 -0.11765457
000330 6c 0b 23 be 62 b9 da bc 1a d2 a7 be 3d 70 57 bd
       -0.15922326 -0.026699726 -0.32777482 -0.052597273
000340 2f 99 5d 3d 60 44 a0 3d 66 0a b6 3e 86 28 3e be
       0.054101165 0.078255415 0.35554808 -0.18570146
000350 cd 52 d5 3d 75 ba ce bc 39 46 0c bc de 39 45 be
       0.104161836 -0.025235394 -0.008561664 -0.19260356
000360 fc 18 73 3c 41 13 1c be 21 cc 04 3e 77 e7 58 be
       0.0148375 -0.1524172 0.12968494 -0.21182047
000370 89 d6 3b 3f 7b 6c b9 be 81 b3 c0 bd f7 8b 04 be
       0.7337423 -0.36215577 -0.09409238 -0.12944017
000380 86 18 92 3e 84 ef c2 3e 80 11 0a 3e 93 fa 76 be
       0.28534335 0.3807336 0.13483238 -0.24119024
000390 9e 01 58 3e 02 9b 05 3d 4b 47 6a 3e 69 2f c4 3c
       0.21094367 0.03261853 0.22878759 0.023948388
0003a0 17 2d 96 3e 50 0c 98 3c dd be 13 3e 95 1b 0b be
       0.29331276 0.018560559 0.14428277 -0.1358474
0003b0 8c 43 cb 3d f6 43 50 bc 71 f9 86 bd d8 fc 2a 3b
       0.09924993 -0.012711516 -0.06590546 0.0026090648
0003c0 0d 45 b5 bc 77 1c cb bc c7 35 49 be 52 e5 98 be
       -0.022127653 -0.024793847 -0.1964942 -0.29862458
0003d0 d2 18 02 be 38 f6 10 be 61 13 af 3e 59 9f 87 bd
       -0.1270478 -0.14156425 0.34194472 -0.0662219
0003e0 10 8b a8 bc 3f 2f 86 be 5b d8 6a be 82 b0 ec bd
       -0.020574123 -0.2620792 -0.22934096 -0.11557104
0003f0 20 ba 72 3e 38 c9 48 be 6a 26 61 be dd ab 26 bc
       0.23703814 -0.19608009 -0.2198731 -0.010172811

linear2.weight f4 [3, 256]
000000 9e 6c 06 bf 73 6e 02 bc 60 7e 3f be b6 64 47 3d
       -0.52509487 -0.007960903 -0.18700552 0.04868003
000010 d8 5b 0e 3e 5d 69 01 3f 80 04 cb 3d 79 87 ef 3c
       0.13902223 0.50551397 0.09912968 0.029239403
000020 0c 38 2f 3e e1 05 cf bd 9e b2 33 3d 70 4c 1a bc
       0.17111224 -0.10108543 0.043871514 -0.009417638
000030 f8 f8 de bd ad df ae 3e a3 89 c3 3e 05 1f df be
       -0.10887331 0.34155026 0.38190946 -0.43578354
000040 d7 90 2b be ed b2 55 3e 91 78 d4 3d 94 1c 02 3e
       -0.16754471 0.20869036 0.10374559 0.12706214
000050 71 e7 82 be 05 b4 4e be ec f9 4f be c1 39 2b bb
       -0.255672 -0.2018586 -0.20310181 -0.0026126953
000060 ea 18 b1 be 7d 96 8f 3d 75 78 69 be 7d dd ad bd
       -0.3458932 0.07011125 -0.22799857 -0.08489511
000070 3f dd ce 3e f1 94 d9 bc d0 f0 9b 3d 68 50 bb be
       0.40403172 -0.026560279 0.07614291 -0.36584783
000080 22 5f 10 bd 08 1e fb 3e 27 1e 87 be 87 90 b0 39
       -0.035246976 0.4904635 -0.26390192 0.00033677017
000090 00 4c bd 3c 28 20 f8 3d 2c f8 12 be 63 82 93 3e
       0.023107529 0.12115508 -0.14352483 0.28810415
0000a0 72 5c 76 3d 3d 76 df be 8d ae 57 be 98 98 88 be
       0.060146756 -0.43644896 -0.2106268 -0.2667892
0000b0 a6 bc 03 be c3 ea 06 bf 36 b7 71 be f9 43 77 be
       -0.12864932 -0.5270197 -0.23605046 -0.24147023
0000c0 c5 1c a8 bd 7b 32 a8 3c 39 64 fc be 98 0d 21 bf
       -0.08208612 0.020531883 -0.49295214 -0.6291137
0000d0 9b cb a4 3d dd b0 b2 be c0 70 99 be 9f 85 fe bd
       0.08046647 -0.3490056 -0.29968834 -0.1242783
0000e0 07 dd 04 be c2 ce 13 3e 44 d6 6e bc bd de 93 3b
       -0.1297494 0.1443434 -0.014577452 0.0045126365
0000f0 d1 92 40 be 7d 0e 49 3d 71 5c b4 3e 30 dd 46 3e
       -0.18806006 0.049086083 0.35226777 0.19420314
000100 ab 51 a2 3e 3f 90 af 3b 3f c8 d8 bd a9 31 5d 3c
       0.31702933 0.0053577716 -0.10585069 0.013500609
000110 3b e9 7e 3e f9 b1 81 3e 7d e8 66 bc 65 b1 4b be
       0.24893658 0.25331095 -0.014093515 -0.1989189
000120 f4 53 cb bd c6 8a 2c bd 3a 6b 73 3e e4 83 88 3d
       -0.09928122 -0.042124532 0.23771372 0.06665781
000130 9b d4 8b 3e 68 c9 a5 3e 28 81 00 3f 2b 35 61 3d
       0.27310643 0.32380223 0.50197077 0.054982346
000140 62 e2 90 bc 22 f2 c8 3d a2 3b da 3c 4d 54 be 3d
       -0.017686073 0.09811808 0.026639763 0.09293423
000150 1f 09 9e bd 97 dd 08 be 6e a4 dd be 18 0c 7d bd
       -0.077165835 -0.1336578 -0.43289512 -0.06177911
000160 96 a6 b1 be da 88 45 3e 69 4a ed 3c fb 21 16 bd
       -0.34697407 0.19290486 0.028966146 -0.0366535
000170 86 5a 92 3c d4 01 bc bd 3c d7 82 3e 01 22 b9 be
       0.01786543 -0.09180036 0.25554836 -0.36158755
000180 75 40 9e 3d 57 f1 e4 3c 53 37 66 3e 68 aa 91 3e
       0.07727138 0.027947111 0.22482042 0.28450322
000190 5a ec 8e bc bf 5f ab 3e 85 e9 0c 3d 28 97 ec bd
       -0.017446686 0.33471486 0.03440239 -0.11552268
0001a0 a2 b0 80 bc 2f d5 1b bf ee 3d 20 bf b1 67 f7 bd
       -0.015709225 -0.6087217 -0.625945 -0.120803244
0001b0 30 bd 2c be 26 2d f8 bd 7f 53 67 be 0a f8 13 be
       -0.16869044 -0.121179864 -0.22590445 -0.14450088
0001c0 9d 43 b0 be 76 15 d3 bc 49 6a 73 3d 31 e4 f3 be
       -0.34426585 -0.02576707 0.059427533 -0.47635034
0001d0 f2 50 09 bd 56 a7 50 3e 4b 6a 4a be 97 14 4d 3b
       -0.03352446 0.20376334 -0.1976711 0.003129279
0001e0 75 57 34 3d d2 bb d3 3d db ef a1 3e 0f 01 7a 3e
       0.044028718 0.10338558 0.31628308 0.24414466
0001f0 b3 be b8 bc 9a 21 10 3f a9 cb 1c 3e 09 af 16 bf
       -0.02255187 0.5630127 0.15312065 -0.5886083
000200 35 ea e4 3e c6 51 90 bc 1b 1e 92 3e 1a 78 92 bd
       0.44709936 -0.017617118 0.28538594 -0.07151814
000210 2d 90 81 3e 88 77 c2 3e 03 87 c6 be a9 d3 9f bd
       0.2530531 0.3798182 -0.3877488 -0.07804043
000220 96 e5 f3 be d8 9b d2 bd 26 c4 18 be 40 57 09 be
       -0.47636098 -0.10283631 -0.14918575 -0.1341219
000230 13 fd ac be 22 f6 5f 3e 71 16 d6 3b 08 fc 9c 3e
       -0.3378683 0.21871236 0.006533437 0.30661035
000240 f7 2f 88 be 5c dd ac 3e 66 4e 0a 3e c4 b6 23 3e
       -0.26599094 0.33762634 0.13506469 0.15987688
000250 d4 c3 66 3e 28 01 b4 3d e0 72 9c 3d 1c e2 98 3e
       0.2253564 0.08789283 0.07639098 0.29860008
000260 6e 98 37 be 74 19 b3 3e ba d7 aa be df 3c 91 bc
       -0.17929241 0.34980357 -0.3336771 -0.01772922
000270 e1 a3 c2 3e ac c2 1d be 2f e5 7c 3e 28 ee c2 3c
       0.38015655 -0.15406293 0.24696802 0.023795202
000280 1b a2 dd 3e ce f8 a4 be 8f ba 53 be 4e b8 e0 bd
       0.4328774 -0.32221073 -0.20676635 -0.10972653
000290 1e 11 98 3e 82 0b 8b 3e 9f 96 b4 bd d8 57 8c 3e
       0.2970056 0.27157217 -0.08817791 0.2741077
0002a0 bf b1 9f 3e bf 13 36 bd 20 9c cd bd d1 80 76 3e
       0.31190297 -0.044452425 -0.10039544 0.24072577
0002b0 d6 f3 d0 3e 4d 23 25 bd 9b 8b 36 3d 99 cc b4 bd
       0.40811032 -0.04031687 0.044566732 -0.088280864
0002c0 b0 f5 dc bd d2 a5 de bb 96 16 5a be f0 3e 16 be
       -0.10789049 -0.0067946697 -0.21297678 -0.14672446
0002d0 15 c3 1d 3d 6c cc 06 3d ab ba 9c be 56 e8 cc bd
       0.038516123 0.032909796 -0.30611166 -0.10005252
0002e0 b2 70 89 be 3b 9e fd be 8c 9a 95 3e be 27 91 bd
       -0.26843792 -0.49534783 0.29219472 -0.07087658
0002f0 f5 d7 7b be a7 0a 9c 3e 60 39 85 3c 9b 67 1b 3f
       -0.245941 0.30476877 0.01626271 0.60704964
000300 72 6d 47 be 3d 02 30 3d d1 ea 11 bf a7 4b 2d be
       -0.19475344 0.042970885 -0.56998926 -0.1692339
000310 7f bb 96 be dc a4 c6 3c f7 96 4a bd 22 76 92 be
       -0.29439923 0.024248533 -0.049460378 -0.28605753
000320 ee ae 5b be 23 4a 23 be ad 7d 76 bd a5 84 09 be
       -0.21453449 -0.1594625 -0.060178448 -0.13429506
000330 c6 01 0d 3d a0 1a a3 3e fa 09 2f 3b b3 9d dc bb
       0.03442552 0.3185625 0.0026708827 -0.0067326664
000340 ae 79 9f be 04 72 c8 bd c6 cc 79 3e fe 9d 83 be
       -0.31147522 -0.09787372 0.24394521 -0.25706476
000350 11 98 1f 3d db 19 fb bd ee 81 06 3c 30 9c b2 be
       0.03896338 -0.12260791 0.008209689 -0.34884787
000360 13 40 96 3d 3f b8 d9 3e d4 7a 64 3d ba 24 ca bd
       0.0733644 0.4252338 0.0557812 -0.09870286
000370 17 7e 09 3f 4a b5 12 be f1 16 2f bf c6 14 37 bd
       0.5370802 -0.14326969 -0.6839438 -0.044697545
000380 6a 13 5c 3e 06 fc 6a 3e 9e e2 a4 3e b5 f0 bb bc
       0.21491781 0.22947702 0.32204145 -0.022941926
000390 22 ac 27 3d 5a c3 de bd 7a 1d 76 3e 78 b9 80 3e
       0.040935643 -0.10877104 0.24034682 0.251415
0003a0 53 de 00 3f 42 da 84 be 94 10 86 3d 1e f3 1f be
       0.5033924 -0.25947767 0.06546131 -0.15620086
0003b0 81 65 b6 3e 9a 97 f2 bd c6 6a 97 be 27 c9 8d bd
       0.35624316 -0.11845322 -0.2957365 -0.069231324
0003c0 f0 57 17 be 21 36 34 bd 30 f0 3f be 70 7e 9f bc
       -0.14779639 -0.043996934 -0.18743968 -0.01946947
0003d0 5b d2 a0 3e da 7c c9 be 94 2c 35 3e 9c 91 0b be
       0.31410488 -0.39353067 0.17692786 -0.13629764
0003e0 74 92 13 bc 89 7f a5 bd 97 80 4f 3c 36 52 16 bd
       -0.009007085 -0.08080966 0.012664936 -0.036699496
0003f0 c6 ed 8c 3e e7 b9 a8 be 72 32 77 be f6 8b c2 bc
       0.27525157 -0.32954332 -0.24140337 -0.02374838

linear2.bias f4 [3]
000000 2a 53 09 3e e6 90 c0 3d ed 1c 58 bd
       0.13410631 0.09402637 -0.05276196
